W0.npy (npy, 401536 bytes, 1 tensors)

array f8 [64, 784]
-0.0011488861531061823 -0.0003631014748284158 -0.0013248231349840777 -0.0007773403385542787 -0.0020536963613536547 0.0013188825476348545 -0.0012453118827311868 0.0005386210482699536
0.0014970805962244288 -0.0019795135495820813 0.0013998374287636233 -0.00015591432806239872 0.0007540555487472976 -0.0011069869581019226 -0.002086721218770848 0.0008058284199386731
-0.0017471296753184748 -0.0006555565667397906 0.0014848134454351605 0.002229217342358248 -0.0004304754093853437 -0.0009376476627957987 0.0014047536133649438 -0.0013459349143955305
0.0005493575234721588 -0.0021135453242273725 -0.00077285071624039 0.001757979155187668 -0.001529710894370879 0.0012520821402898696 -0.0006820377806281637 -0.0001160065120065382
-0.0013230794445624726 0.0010488766209850269 0.0017099667132847995 0.0009338132309831147 -0.0016599714058011027 0.000987756021094792 -0.001239096014136905 0.0017066594062059668
-0.0016305381099970644 0.0023862712772477752 -0.00174588072130482 0.0017735866354249574 -0.0006792723656245978 -0.00015427190839449438 -0.0012006785895271345 -0.001155514812211968
-0.0006588859859897976 -0.002062231398930093 0.0003060958392092191 -0.0020186566356166784 0.0010035023688458862 0.0021397633022655666 -0.0011788578460841803 0.0014208739234280257
-0.0015827199706283325 0.0014467986957488212 0.002071787959185832 -0.0020135441127463174 -0.002083266473308676 -0.0020545854219773015 3.877536056070661e-05 0.0002623143764932762
-0.0008022652692000621 0.0025680620750287977 0.0011809181334659757 0.0021442638181978463 0.0005547223316042985 0.0045938700310587145 0.00938164228371792 0.008965697973133312
0.016273468089570226 0.017944465967982104 0.01114604391779666 0.010009490119482569 0.004098419312272813 4.3548075114192695e-05 0.0016417495787857618 0.0015852266548160967
0.0009243651635407346 0.001441669050413615 -0.0014279461641645505 -0.001678535958372517 0.001395984056043161 -0.0015063362307785129 -2.181003865418658e-05 -0.0011904396282111848
-0.001240647115982826 -0.000961758174684764 -0.0014156920651669876 0.002011433997557204 0.0006644189584133105 0.0026455916872377104 0.008232605603258761 0.013976655305755384
0.015031091401204446 0.023485253772721072 0.029667849660712967 0.035357314536505514 0.041409377632861524 0.04316990814662511 0.033443825785314574 0.018832307014557785
0.010728440259260914 0.0023898538414498577 0.002263418496142162 0.0006970066542589673 -0.0014197535318126525 0.0014104982515921402 -0.002124492894375067 -0.0008074711500889989
-0.0006095808444345173 0.0010725901735329983 0.002047161162914959 -0.00021820639074356406 0.002176246480514029 -0.0005047833744855719 0.0012908989341016892 0.002942064083443933
0.004348544418018687 0.010779303101618898 0.01554506816791424 0.02078722944306046 0.024580123014449964 0.030485153002825147 0.03301578035304188 0.03742066735260825
0.028040278763138214 0.01378246225921816 -0.0019305878176620883 -0.015064689243368939 -0.01020196612968001 -0.007875020806204322 -0.005507129641936252 -0.0018470472518426324
-0.002822828220858762 -0.0017755677063206457 -0.0015573926040397886 0.002203535281595836 -0.001120273805333716 0.0006004032287778621 -0.0010257980918215086 -0.0012462105547659057
-0.001676406373362066 0.0021311252306485183 0.003701816510479517 0.0036637120168223083 0.009666394624445232 0.018656558948148407 0.026142006248466562 0.024415881054544654
0.027320651896514166 0.025763147437591928 0.013519308653022713 0.006405140176942652 -0.0060433572000302485 -0.02613375051262444 -0.03800638215852777 -0.038463213233393315
-0.03458989396941448 -0.022880196488982617 -0.011794369311418198 -0.005836334834767062 -0.0038175775832212265 0.0010884050435604308 -0.0016796664329783782 -0.0012001840491869962
0.001181954070622078 0.0004852418776401861 -0.0019274964262066716 -0.0009276545754054276 -0.0012338943269050544 0.002717715785429861 0.005927805751312991 0.004627504967977689
0.010728173618917225 0.014543649295301695 0.016667401864924814 0.012574946996823051 -0.0018212468124515421 -0.024639534072120134 -0.046469489027019584 -0.05031627725634495
-0.05721999504589849 -0.07712989879708813 -0.07783163544691615 -0.07083435787221973 -0.05751319133458651 -0.039601063159351704 -0.019954288794057175 -0.013900870451121546
-0.00735570210457401 -0.0010259393986019423 0.001204903877633398 -0.00041661045070851737 0.0016359397404490266 -0.0022118582963265372 -0.0003586182263347368 0.0008595857910981498
-0.0018423472161383228 0.0004511066516504833 0.00305128157006059 -0.008109952885161788 -0.01281070689857344 -0.019948109422652155 -0.02808128374617827 -0.044703089987813985
-0.06271561659959943 -0.08868631378447578 -0.1078565719590158 -0.11089009100960552 -0.11647773339832668 -0.12888160065042856 -0.12490920582108184 -0.10004277498695202
-0.07054406693482294 -0.0521599079856889 -0.028901484455406346 -0.015506477648761032 -0.009135838282480808 -0.007152788029353058 -0.003061997925898315 -0.0002991378408401241
-0.0008082309834707812 0.0004275084085113526 -0.00028100780654655963 -0.002065873209664335 -0.003379536942562114 -0.001746049421465379 -0.010961939604989538 -0.02543938266468645
-0.03964342168318833 -0.061011435543044196 -0.07441469974031771 -0.09836081004727062 -0.12059598472277237 -0.13048101893906813 -0.12989784890698794 -0.12726141516378972
-0.12799400905603395 -0.13158984251190514 -0.1316052973832929 -0.10317771683981963 -0.07449622586188062 -0.05712635786370002 -0.03499819390203361 -0.020589440771000108
-0.013061158583534065 -0.002441569634327763 0.0007017769782839054 -0.0009167204630084315 0.0007405187585899259 0.0019973139114028006 -0.001653682695046738 -0.0011154976279476514
00000000: 8030 151d c7d2 52bf e5ee a2f5 d4cb 37bf
00000010: 6b58 6a02 b6b4 55bf d768 7daa cd78 49bf
00000020: ed58 a7d6 e9d2 60bf 20e7 325a cb9b 553f
00000030: e550 d173 3767 54bf c0d3 c4e4 47a6 413f
00000040: c00f d10c 3687 583f 6b61 a33e 5737 60bf
00000050: 82fc 7afe 57ef 563f 4971 48e1 9d6f 24bf
00000060: e017 ebf5 79b5 483f 45af 0e32 0a23 52bf
00000070: ffe4 7eec 2b18 61bf e982 db5a c767 4a3f
00000080: e0b0 4f34 fe9f 5cbf d2cc e501 357b 45bf
00000090: f761 154c c253 583f e868 98f2 0143 623f
000000a0: ee3f 17ce 2d36 3cbf ce1f 0006 8fb9 4ebf
000000b0: e086 03b5 f603 573f 9be2 269c 420d 56bf
000000c0: 2593 6e4c 5800 423f 193a 7a01 6d50 61bf
000000d0: ee49 8546 2453 49bf 2011 a1be 7fcd 5c3f
000000e0: 1ec5 df90 1210 59bf d77a 0bf6 9c83 543f
000000f0: c90c 31fb 5859 46bf 924c 65b3 1069 1ebf
00000100: 7524 71bc 65ad 55bf 2b07 38b2 4e2f 513f
00000110: 8075 17c7 1e04 5c3f 8e89 d1a4 6499 4e3f
00000120: 190e 9db9 6c32 5bbf e05d a6f3 f22e 503f
00000130: ee5c de36 254d 54bf 2db6 7195 3ff6 5b3f
00000140: b050 def6 f8b6 5abf ff93 0ba3 5f8c 633f
00000150: e136 7226 c19a 5cbf 8524 2126 f60e 5d3f
00000160: 1d30 374c 2642 46bf c4e5 3c9a 8138 24bf
00000170: 8b08 9ad1 02ac 53bf a20b 0695 94ee 52bf
00000180: 5bba 7ce1 2297 45bf 9b3a 490d d0e4 60bf
00000190: c6a4 6c9e 6f0f 343f 8120 6b07 6e89 60bf
000001a0: f9fe c276 fe70 503f 89f0 f0ac 6887 613f
000001b0: 00ee 50f9 7c50 53bf a56b 1ac2 9347 573f
000001c0: 6706 cea0 68ee 59bf 0bba 4145 50b4 573f
000001d0: fd27 edb0 daf8 603f be24 a043 b57e 60bf
000001e0: cd14 e52b ed10 61bf a823 3726 c7d4 60bf
000001f0: 6e2d 763e 5754 043f af50 16ab e730 313f
00000200: 86ed 058c e349 4abf fe07 0bd4 9d09 653f
00000210: b8a1 cc30 2159 533f b717 24df d890 613f
00000220: b199 e422 592d 423f 8440 ba98 05d1 723f
00000230: a8a9 54b6 ae36 833f ccb3 a49c 9b5c 823f
00000240: 88e5 f2f4 fda9 903f b01b e8b9 0860 923f
00000250: 1c8e dab0 bcd3 863f 2ed7 b305 db7f 843f
00000260: e387 950e 81c9 703f 847d a477 ecd4 063f
00000270: e75c f12f ffe5 5a3f 345e e828 ecf8 593f
00000280: 8fe2 cf12 234a 4e3f 5569 155b cc9e 573f
00000290: 6592 d584 3d65 57bf c9b9 f742 4a80 5bbf
000002a0: 89cc 7377 2edf 563f 2733 4536 08ae 58bf
000002b0: 49ee a371 96de f6be db8b 58d1 1081 53bf
000002c0: 255a 7fb2 a653 54bf a756 16f4 cf83 4fbf
000002d0: a715 c0c7 d731 57bf f12d 9a67 487a 603f
000002e0: a0c0 3ed9 8cc5 453f 78e4 ce38 35ac 653f
000002f0: 356a 9d9e 41dc 803f e8c2 90eb ca9f 8c3f
00000300: 1b4e eeef 9ec8 8e3f 0a82 91b3 840c 983f
00000310: b441 24b0 3f61 9e3f 75a4 379b 5a1a a23f
00000320: ea98 5c25 9c33 a53f ec78 52bf 5d1a a63f
00000330: 5089 0094 8c1f a13f 4e6a f1ba c648 933f
00000340: 0aa9 67e0 caf8 853f 0e7f eb02 e393 633f
00000350: a902 618d bb8a 623f 885b 7f64 ead6 463f
00000360: a175 33bf e042 57bf 6554 25f7 0e1c 573f
00000370: a3c5 0f70 6267 61bf eee9 4e17 8f75 4abf
00000380: e03b 43e5 88f9 43bf ded1 e8ed c492 513f
00000390: 52ce d147 35c5 603f 6e52 c19f ca99 2cbf
000003a0: ab6a c76e ebd3 613f 58a0 e00a 6e8a 40bf
000003b0: 5a05 152d 6c26 553f 6f14 ada0 f419 683f
000003c0: 0231 f880 c7cf 713f 406a 5c92 7513 863f
000003d0: c489 29bb 17d6 8f3f 0692 875a 3f49 953f
000003e0: 7435 ea21 882b 993f f98b a4fc 7f37 9f3f
000003f0: 3289 bcc1 71e7 a03f 3aa9 f23c cd28 a33f
00000400: 869a 0841 97b6 9c3f 6a27 4bc5 fa39 8c3f
00000410: 0094 7de2 78a1 5fbf 5654 ff5c 3cda 8ebf
00000420: a814 0eb7 c4e4 84bf 5832 8b66 c720 80bf
00000430: 1ea9 4fdb a48e 76bf b6f8 9ce2 1343 5ebf
00000440: e28c 815c e61f 67bf fc32 c04e 4517 5dbf
00000450: a2dc 4993 2d84 59bf 7f89 0aff 250d 623f
00000460: 6777 d0d6 c45a 52bf 2ea0 b21d 8cac 433f
00000470: d952 6d50 82ce 50bf a6d3 e764 fc6a 54bf
00000480: b3eb 18a3 5b77 5bbf 0f09 6b25 4b75 613f
00000490: 014b 259b 4553 6e3f 8333 6a69 5c03 6e3f
000004a0: dbfd 4186 f9cb 833f 371c 277a b41a 933f
000004b0: cc53 8e57 f8c4 9a3f 6a78 870a 7a00 993f
000004c0: 0f8d 9ae9 f1f9 9b3f 8af5 be8e a761 9a3f
000004d0: e8ed 3be4 02b0 8b3f b856 61b9 463c 7a3f
000004e0: 08cb 8358 ebc0 78bf 3c1c 184f cec2 9abf
000004f0: cbff d190 9275 a3bf c27c df45 73b1 a3bf
00000500: 01d2 bd3e c4b5 a1bf 76be 95fe e76d 97bf
00000510: 8182 c173 a527 88bf 63ba e633 d7e7 77bf
00000520: 260a d65b 0a46 6fbf b3fb 4704 1ad5 513f
00000530: 9e10 7619 0885 5bbf 475a 63cf efa9 53bf
00000540: 875a 0985 795d 533f 6ece bffe 01cd 3f3f
00000550: 5119 4787 8194 5fbf 5be3 1b08 bb65 4ebf
00000560: b040 f8f1 5337 54bf ac41 628d 7643 663f
00000570: df41 6c3d c147 783f 701f fe67 4af4 723f
00000580: cd64 b616 a7f8 853f f2d7 b390 0fc9 8d3f
00000590: 6d33 ad67 4211 913f 0464 cdd0 e4c0 893f
000005a0: e0c9 d5df dcd6 5dbf b81d 1d24 1b3b 99bf
000005b0: d808 444f d9ca a7bf 3681 8b1a 0ec3 a9bf
000005c0: 4280 cc6e f04b adbf a395 e0f8 c8be b3bf
000005d0: feb4 d628 c6ec b3bf 528d 7e52 3322 b2bf
000005e0: 7bc4 bd77 5e72 adbf 7aff 4f2e 9746 a4bf
000005f0: ca43 24a7 e56e 94bf 44ba c93f 0f78 8cbf
00000600: e2f7 a63f 0321 7ebf ac01 8a0a 1acf 50bf
00000610: 26dc f3af bbbd 533f 8898 ce42 904d 3bbf
00000620: 4abb bdeb a0cd 5a3f 11b9 7961 9a1e 62bf
00000630: 3996 c98d 9d80 37bf ce14 316e ba2a 4c3f
00000640: 7cde a242 5d2f 5ebf 8057 db50 5090 3d3f
00000650: acce bc51 00ff 683f 749b 4f73 f39b 80bf
00000660: fe17 58f9 7f3c 8abf 886a 59f6 466d 94bf
00000670: 6833 470d 57c1 9cbf 9a3c 0ecb 52e3 a6bf
00000680: ae66 3e72 210e b0bf 409f 4e71 25b4 b6bf
00000690: 2aff 3801 7d9c bbbf 3d33 5602 4b63 bcbf
000006a0: 0074 a817 7cd1 bdbf b9c3 ec39 317f c0bf
000006b0: 8c8b f8b9 0cfa bfbf b821 c53e 679c b9bf
000006c0: 3f72 690c 2d0f b2bf 7cfb eb15 b4b4 aabf
000006d0: 8dd3 2aca 5998 9dbf 8e4a 0533 dcc1 8fbf
000006e0: d78c 2875 cfb5 82bf 94a6 94ea 3d4c 7dbf
000006f0: c409 789e 7915 69bf f6bf 4f3e b39a 33bf
00000700: 66a2 20d2 ee7b 4abf b457 21a2 6604 3c3f
00000710: 9534 cb56 876a 32bf fb2d f13b 73ec 60bf
00000720: 200f 9b14 67af 6bbf cea7 644a 769b 5cbf
00000730: 6250 d5a0 3673 86bf 5710 4d12 c80c 9abf
00000740: 4dfc 427f 244c a4bf 1cc4 ad10 e43c afbf
00000750: 63f0 b97d d70c b3bf c270 5c8e 2c2e b9bf
00000760: fbc8 69e2 60df bebf 6fc8 8b1e 9ab3 c0bf
00000770: 5f29 7022 7ea0 c0bf 6be8 1520 1a4a c0bf
00000780: 5363 7d91 1b62 c0bf b286 099b efd7 c0bf
00000790: aaec 1e40 71d8 c0bf e4c2 80d7 da69 babf
000007a0: 9e90 c045 2f12 b3bf 2043 877d aa3f adbf
000007b0: dee3 7484 48eb a1bf bf7a 04fb 6515 95bf
000007c0: 7c93 b607 cfbf 8abf 43fb 5eb7 5700 64bf
000007d0: b644 dd95 eefe 463f 72bd 3f34 020a 4ebf
000007e0: 9ff3 d3ec eb43 483f 1fff bcbd ab5c 603f
000007f0: 1bc6 f645 0c18 5bbf dcd6 2b75 bc46 52bf
